model/good/Breakout_3954_record_600.pth (torch, 21800 bytes, 6 tensors)

fc1.weight f4 [64, 5]
0	0x3f029000	0.51000977
1	0xbff6990f	-1.926546
2	0x3e64af12	0.22332409
3	0xbe1ccbc2	-0.15312102
4	0x3fb36d3f	1.4017714
5	0x3e1c4ad5	0.15262921
6	0xbec486cf	-0.383841
7	0xbec03ea7	-0.375478
8	0xbec51413	-0.38491878
9	0x3d69d9f8	0.057092637
10	0x4011be5f	2.2772443
11	0xbe4fcc1e	-0.20292708
12	0xbdf22001	-0.118225105
13	0xbf32e6e6	-0.69883573
14	0x3eb64cb9	0.3560541
15	0x3de1f73f	0.110334866
16	0xbe894a52	-0.26814514
17	0xbe9d70bc	-0.30750072
18	0x3da330bd	0.079682805
19	0x3d1e0a3d	0.038583983
20	0x3fae2362	1.3604548
21	0x3f74d115	0.95631534
22	0xbf4c450e	-0.7979287
23	0xbf34c23e	-0.7060889
24	0xbedbcd2f	-0.4292998
25	0xbfea2fca	-1.8295834
26	0xbf60cfa3	-0.8781683
27	0x3e21aa63	0.15787654
28	0x3f05b5ee	0.5223073
29	0x3eba9604	0.36442578
30	0x3dbfe788	0.09370333
31	0x3d8480fb	0.064699136
32	0x3e96f002	0.29479986
33	0xbea3d88c	-0.3200115
34	0xbe9fe8b2	-0.3123222
35	0xbe49a92d	-0.19693442
36	0xbecc6809	-0.39923123
37	0xbedb6c18	-0.42855906
38	0x3e742285	0.23841293
39	0xbea23254	-0.31679022
40	0xc04e0d35	-3.219556
41	0xbfbc973c	-1.4733653
42	0x3f280119	0.65626675
43	0x3edb9cbe	0.42893022
44	0x3fb03635	1.3766543
45	0xc07d447b	-3.9573047
46	0x3ffbe3fc	1.967895
47	0x3e7c4d92	0.24638966
48	0xbd943fc8	-0.07238728
49	0x3ecce684	0.4001962
50	0x3f97fcbf	1.1874007
51	0x4007eed7	2.1239526
52	0xbef1f890	-0.4725995
53	0xbf4ef5d6	-0.80843866
54	0x3f74b328	0.9558587
55	0x401fca14	2.4967089
56	0x3f5649ae	0.83706176
57	0xbe5036f3	-0.20333461
58	0xbee5d8f7	-0.44892094
59	0xc019ae34	-2.4012575
60	0xbeec193f	-0.4611301
61	0x4025b48e	2.5891452
62	0xbecdbf2a	-0.4018491
63	0x3e105a34	0.1409691
64	0xbe90a99e	-0.28254408
65	0xbec4fd9f	-0.38474748
66	0xbe943b35	-0.2895142
67	0x3e152a7a	0.14566985
68	0xbe450d38	-0.19243324
69	0xbeb71c8f	-0.35763976
70	0x3dae1023	0.084991716
71	0xbe8d16db	-0.275565
72	0xbe9cba4e	-0.3061089
73	0x3e1f6792	0.15566853
74	0xbdf4c5c8	-0.11951786
75	0xbe2a4806	-0.16629037
76	0xbe3d19aa	-0.18466821
77	0xbe593526	-0.21211681
78	0x3e354340	0.17701435
79	0x3e6273d1	0.22114493
80	0x3dcf8065	0.10131911
81	0x3bfb5d90	0.0076710656
82	0x3ec39a2f	0.3820357
83	0xbe81b39e	-0.2533235
84	0xbeb37a67	-0.35054323
85	0x406f8fe0	3.7431564
86	0x3ded789e	0.115952715
87	0xbdba0973	-0.090838335
88	0x3e1d45d8	0.15358675
89	0xbfdc7934	-1.7224488
90	0x3f4eda5e	0.8080195
91	0x3f58074b	0.8438613
92	0xbf0e7800	-0.55651855
93	0xbf405ac8	-0.7513852
94	0xbec21460	-0.3790617
95	0xc04165d9	-3.0218413
96	0x3fa92489	1.3214275
97	0x3e942845	0.28936973
98	0x3d1ad0a1	0.03779662
99	0xbf01d187	-0.5071034
100	0xbe218f40	-0.15777302
101	0x3fa8e8ee	1.3196084
102	0xbec34006	-0.38134784
103	0xbdf9b0cb	-0.12191924
104	0xbd0a0d09	-0.033703838
105	0xbe7c860a	-0.24660507
106	0xbd93ef39	-0.072233625
107	0x3e641480	0.22273445
108	0xbe9e567c	-0.30925357
109	0xbe9a0eab	-0.30089316
110	0xbd7ab310	-0.061205924
111	0xbd784700	-0.060614586
112	0xbec0bdd3	-0.37644824
113	0xbeaf0a2a	-0.34187442
114	0xbe861471	-0.2618747
115	0xbf7398a8	-0.9515481
116	0xc012647a	-2.2873826
117	0x3f1428d4	0.578748
118	0x3ef79130	0.48352957
119	0xbf8f188b	-1.1179365
120	0xbd03a10a	-0.032136
121	0x3eb45f22	0.3522883
122	0xbe9376a6	-0.2880146
123	0xbecbf5f8	-0.39836097
124	0xbeae8b0f	-0.34090468
125	0xbd5eb595	-0.05437239
126	0xbe4b60f8	-0.1986121
127	0xbdeadd8c	-0.11468038
128	0xbed9bd93	-0.42527446
129	0x3dc13e35	0.09435693
130	0xbfde4583	-1.7364963
131	0xc01f6053	-2.4902542
132	0x3f5fad71	0.87374026
133	0x3ec054f9	0.3756483
134	0x3d90617a	0.07049842
135	0xbeb01e3d	-0.3439807
136	0x3d849124	0.06472996
137	0xbdb050c4	-0.08609155
138	0xbebdbe2b	-0.3705915
139	0x3de773c7	0.1130138
140	0xc055b352	-3.3390698
141	0xbf8bfea1	-1.0937082
142	0x3f62a113	0.8852703
143	0x3e9abae9	0.30220726
144	0x3f9da339	1.2315437
145	0xbe2a99e3	-0.16660266
146	0xbdc818d3	-0.0977036
147	0x3e895065	0.2681915
148	0xbb4c7332	-0.0031196591
149	0x3d2faba2	0.04288829
150	0xbe26fecf	-0.1630814
151	0x3cc361fb	0.023850432
152	0xbe2074fb	-0.15669625
153	0x3cbad475	0.022806386
154	0xbd382534	-0.044957355
155	0x3e1cbfbc	0.15307516
156	0x3ddb5d3a	0.10711141
157	0xbec1113e	-0.37708467
158	0xbd2989be	-0.041391127
159	0xbedb0816	-0.42779607
160	0xbe36637d	-0.1781139
161	0xbebb1031	-0.3653579
162	0xbedee44c	-0.43533552
163	0x3cbf7003	0.023368841
164	0x3dc643b2	0.096808806
165	0x3e70b280	0.23505592
166	0xbe62f1a8	-0.22162497
167	0xbea9d714	-0.33171904
168	0xbe9ab4da	-0.30216104
169	0x3e4520da	0.19250813
170	0xbed0b0f8	-0.40760016
171	0x3ec399a3	0.38203153
172	0xbcbfbd9d	-0.023405844
173	0x3de0e23f	0.10980653
174	0xbee2fb58	-0.44332385
175	0x3ed02414	0.40652525
176	0x3e7ea017	0.24865757
177	0xbe69b874	-0.2282427
178	0xbeb8575f	-0.3600416
179	0x3ea9c900	0.33161163
180	0xbe0a9cb2	-0.13536337
181	0x3d594162	0.05304087
182	0xbedbb5df	-0.42912194
183	0x3d32bc28	0.04363647
184	0xbe87fd24	-0.26560318
185	0x40321563	2.7825553
186	0x3f66553e	0.8997382
187	0xbf866073	-1.0498184
188	0xbe5e954c	-0.2173664
189	0xbd58570e	-0.052817397
190	0x3f816ecf	1.0111941
191	0xc07efecb	-3.9843013
192	0x3dcd28e5	0.10017566
193	0x3e9330c6	0.2874815
194	0x3f08389c	0.5321138
195	0xc052eb6d	-3.2956192
196	0x3eb413c2	0.35171324
197	0x3e84c4da	0.25931436
198	0xbeec2b90	-0.46126986
199	0x4032c848	2.7934742
200	0xbed3854d	-0.41312638
201	0xbe916bf6	-0.2840268
202	0x3d6f343b	0.05839942
203	0xbda19b48	-0.07890946
204	0xbed1b5ac	-0.40958917
205	0xbf8ec694	-1.1154351
206	0xbf9017e8	-1.1257296
207	0x3f2bada3	0.67061824
208	0x3eba40dd	0.36377612
209	0x3f8bdae5	1.0926176
210	0x3ed95b10	0.42452288
211	0x3fa3d3d3	1.2799019
212	0xbf0cbb7a	-0.54973567
213	0xbf271255	-0.6526235
214	0x3e379fb1	0.17932011
215	0xbfcf5c76	-1.6200092
216	0x3fa05bb6	1.2527988
217	0x3e67e24b	0.22644918
218	0x3e9b644d	0.3034996
219	0x3f16476a	0.5870272
220	0x3fd63561	1.673504
221	0xc0178faf	-2.3681448
222	0x3ee72305	0.45143905
223	0x3ec89a13	0.3918005
224	0xbfc39719	-1.5280486
225	0xbdc99535	-0.09842912
226	0x3e92303d	0.28552428
227	0xbd4206ac	-0.047369644
228	0xbdccabaf	-0.099936835
229	0xbc89e862	-0.016834442
230	0x3f93ee5a	1.1557114
231	0xbfcf2100	-1.6181946
232	0xbf8dd759	-1.1081344
233	0xbf0cac6c	-0.54950595
234	0x3f7d24c8	0.9888425
235	0xc029e904	-2.6548471
236	0x3fe90071	1.820326
237	0x3e0c3eba	0.13695803
238	0x3e82b60f	0.25529525
239	0xbdf48037	-0.119385175
240	0xbe559d79	-0.20860852
241	0xbeb73783	-0.3578454
242	0xbe21f256	-0.158151
243	0xbecc8cfb	-0.3995131
244	0xbe7e3470	-0.24824691
245	0x3e64c0db	0.22339194
246	0x3f9e7d29	1.2381946
247	0x3d93fff8	0.072265565
248	0xbe289f75	-0.16467078
249	0xbf9c7a01	-1.2224733
250	0x3da9a5c1	0.08283568
251	0xbcad5e87	-0.021163238
252	0xbeda940d	-0.4269108
253	0xbe72e755	-0.23721059
254	0x3dfd36a3	0.12363937
255	0xbf9f6c71	-1.2454969

fc1.bias f4 [64]
0	0xbe16385d	-0.14669938
1	0xbec1ea2d	-0.37873974
2	0xbf567960	-0.83778954
3	0xbe828c29	-0.2549756
4	0xbf2497db	-0.64294213
5	0x3ec57359	0.38564566
6	0xbe6aea80	-0.22941017
7	0xbe3c8cfe	-0.18413159
8	0x3eea53f8	0.45767188
9	0x3f14419f	0.5791263
10	0xbf459cfe	-0.77192676
11	0x3e180272	0.14844683
12	0x3df02a1b	0.11726781
13	0xbeb39b5f	-0.35079476
14	0xbd517180	-0.051133633
15	0xbe383463	-0.17988734
16	0xbe87b47f	-0.26504895
17	0xbf2ae3c9	-0.6675382
18	0xbe962120	-0.29322147
19	0xbdb50789	-0.08839328
20	0x3dd97c5b	0.10619422
21	0xbdc60f02	-0.09670831
22	0x3eabb6f7	0.3353803
23	0x3f2c7d82	0.6737901
24	0xbec84576	-0.39115494
25	0x3d3f2a6a	0.04667131
26	0x3f379634	0.71713567
27	0xbee07047	-0.4383566
28	0x3edc012e	0.4296965
29	0xbeb65f9c	-0.3561982
30	0xbba7e406	-0.005123618
31	0xbeb1cf9b	-0.34728703
32	0xbe0531c2	-0.13007262
33	0xbe9270eb	-0.28601775
34	0xbec9dfc1	-0.39428523
35	0xbef2d9fc	-0.47431934
36	0x3e8c8e31	0.27452233
37	0xbf240555	-0.64070636
38	0xbdedc214	-0.11609283
39	0x3d96b3e1	0.07358528
40	0xbebeecb7	-0.37289974
41	0x3eea8b51	0.45809415
42	0xbf3a6599	-0.72811276
43	0xbe4480b0	-0.19189715
44	0x3c85163d	0.016245956
45	0xbeaaa877	-0.33331653
46	0xbefceabd	-0.4939784
47	0x3d61d43f	0.055134054
48	0xbe9e04f3	-0.3086315
49	0xbe22491f	-0.15848206
50	0x3ea1e399	0.31618956
51	0xbe85b655	-0.2611567
52	0x3f18a654	0.59628797
53	0xbe234bdd	-0.15946908
54	0xbe8fdde2	-0.2809897
55	0xbf57fc14	-0.84369016
56	0x3f3f9f0d	0.7485207
57	0xbe9086c4	-0.28227818
58	0x3e13ad22	0.14421514
59	0xbf314d3b	-0.6925847
60	0x3e480ea3	0.19536833
61	0xbead69a6	-0.33869666
62	0xbe857acf	-0.26070258
63	0x3f40609a	0.751474

fc2.weight f4 [64, 64]
0	0xbd853bee	-0.06505571
1	0x3dda217e	0.106509194
2	0xbe4d4293	-0.20044927
3	0xbdb0d1c6	-0.08633761
4	0xbc724f76	-0.014789453
5	0xbe1bb9cf	-0.15207599
6	0xbd567bfc	-0.052364334
7	0xbdaff108	-0.08590895
8	0xbe4395f9	-0.19100179
9	0xbe1a8beb	-0.15092437
10	0xbb842d7d	-0.004033743
11	0xbd03997f	-0.032128807
12	0xbd777697	-0.06041583
13	0x3dca6634	0.09882775
14	0x3cfd7250	0.030938298
15	0xbd40d13c	-0.04707454
16	0xbd9ec4b8	-0.07752365
17	0xbe3bdcf7	-0.1834601
18	0x3c6ecda3	0.014575395
19	0xbde069c0	-0.1095767
20	0xbd03b8d6	-0.032158695
21	0x3cc3b798	0.023891255
22	0xbd7d8508	-0.061894447
23	0xbe14f912	-0.14548138
24	0x3de8fd88	0.11376482
25	0x3dfa1f9c	0.1221306
26	0x3e14e364	0.14539868
27	0x3c9b5eb0	0.018966049
28	0xbd38a136	-0.045075618
29	0x3d992656	0.07478015
30	0xbe128bf6	-0.14311203
31	0x3d56303c	0.052292094
32	0x3daf0090	0.08545029
33	0xbd0ce094	-0.034393862
34	0x3c985110	0.018593341
35	0xbdeac56e	-0.11463438
36	0xbda069da	-0.078326896
37	0xbcbb66ad	-0.022876108
38	0x3c3fcd3b	0.011706646
39	0xbe14d710	-0.14535165
40	0xbdd2e4d0	-0.10297549
41	0x3dda7e8a	0.10668667
42	0x3d016b47	0.03159645
43	0xbce9333b	-0.028466811
44	0x3dc58ae3	0.09645631
45	0xbdf432b0	-0.119237304
46	0xbde3cb89	-0.111228056
47	0xbd32e6c8	-0.04367712
48	0x3d96dd34	0.0736641
49	0xbbe179d8	-0.00688098
50	0x3ddd4da8	0.108058274
51	0xbe658201	-0.22412874
52	0xbd309e55	-0.043119747
53	0xbdbf480e	-0.09339915
54	0xbc9da928	-0.019245699
55	0xbba94332	-0.005165481
56	0xbe08ccab	-0.13359325
57	0x3db6d468	0.08927232
58	0xbe3596e5	-0.17733343
59	0xbd1f74ff	-0.038929936
60	0xbdb4c03e	-0.0882573
61	0x3da5bc16	0.08092515
62	0xbdab4b86	-0.08364014
63	0xbdc03181	-0.09384442
64	0x4004049a	2.0627809
65	0xbd9d314a	-0.07675417
66	0xbff83a9a	-1.9392884
67	0xbddfec30	-0.10933721
68	0x3f02e039	0.51123387
69	0x3fdecc15	1.7406031
70	0x3e0ed0d6	0.13946852
71	0x3d6414d8	0.05568394
72	0xc00b0ca1	-2.1726458
73	0xc0c9d38d	-6.307074
74	0x4002b085	2.042024
75	0xbf2b5ecd	-0.6694153
76	0xc01288c7	-2.2895982
77	0x3d809632	0.062786475
78	0xbd062e74	-0.032759145
79	0xbd80f432	-0.062965766
80	0xbd51da28	-0.05123344
81	0x3dbb207c	0.09137055
82	0x3fbe05be	1.4845502
83	0xbfc53dd8	-1.5409498
84	0x40414a2f	3.0201528
85	0xbd42d5fc	-0.047567353
86	0xbdf72e64	-0.12069395
87	0x40074423	2.1135337
88	0xbc987870	-0.018612117
89	0x3d84646c	0.064644665
90	0x3f415426	0.75519025
91	0xbd7e5880	-0.06209612
92	0xc0d08e09	-6.5173383
93	0x3cbc8270	0.023011416
94	0x3d72ba53	0.059259724
95	0xbd20366c	-0.0391144
96	0x3daecd20	0.08535218
97	0xbd959fa8	-0.07305843
98	0x3d83ee34	0.06441918
99	0xbdb109a9	-0.08644421
100	0xbdf665b4	-0.12031117
101	0xbf06ea20	-0.52700996
102	0x3fe82796	1.8137081
103	0xbf16071a	-0.58604586
104	0xbd5d8c94	-0.054089144
105	0x3f17f43e	0.5935706
106	0x3f42d626	0.76108015
107	0x3fab12eb	1.3365148
108	0x3de79a39	0.113087125
109	0x3c6bb940	0.014387429
110	0x400c8627	2.195688
111	0xc159bb6c	-13.608257
112	0xbd8ce766	-0.06880073
113	0x3fea5d1c	1.8309665
114	0xbdf79e11	-0.12090696
115	0xc0a622e0	-5.191757
116	0x3e520d2a	0.20512834
117	0x3c953f30	0.018218607
118	0xbb975de0	-0.004619345
119	0xc09eeaaa	-4.9661455
120	0x403ec2a5	2.9806302
121	0xbdd147e0	-0.10218787
122	0xc00079b9	-2.0074294
123	0xbfab6fd9	-1.3393508
124	0xbd9982ec	-0.074956745
125	0xbdaa4000	-0.08312988
126	0xbd534b14	-0.051585272
127	0xc09d07a4	-4.9071827
128	0x3d86ca62	0.0658157
129	0xbd806a38	-0.062702596
130	0xbadff700	-0.0017087162
131	0xbdb59db8	-0.08867973
132	0x3de43306	0.111425444
133	0xbddebf68	-0.108763516
134	0x3d06c800	0.03290558
135	0x3add4c00	0.0016883612
136	0x3d47e208	0.048799545
137	0xbdbe9d58	-0.09307355
138	0x3db49374	0.08817187
139	0x3d47ac10	0.048748076
140	0xbda50c28	-0.08058959
141	0x3dfe821c	0.1242716
142	0xbdd9871a	-0.10621472
143	0xbd8a1800	-0.06742859
144	0x3db83468	0.08994371
145	0xbdfb85ee	-0.122814044
146	0x3df7f666	0.12107544
147	0xbda96a60	-0.082722425
148	0x3c7e8be0	0.0155362785
149	0xbde19126	-0.11014013
150	0xbddbc7fa	-0.10731502
151	0xbdd5e32a	-0.10443719
152	0x3bf141a0	0.0073625594
153	0x3d266708	0.040625602
154	0xbdc1093a	-0.09425588
155	0xbdc223d0	-0.09479487
156	0xbddb66f2	-0.10712995
157	0x3d7e5e20	0.062101483
158	0xbd154438	-0.03644201
159	0xbd686720	-0.056738973
160	0x3ddd2af0	0.10799205
161	0x3d3bb944	0.04583098
162	0x3cac8760	0.021060646
163	0x3d9d3642	0.076763645
164	0x3d91da0e	0.07121669
165	0xbde0876a	-0.10963328
166	0x3c13b6e0	0.009015769
167	0xbd28228c	-0.04104857
168	0xbd7c3664	-0.06157531
169	0xbc7a0270	-0.01525937
170	0xbc895fa8	-0.016769245
171	0xbd8d0292	-0.06885256
172	0xbd27a554	-0.040929154
173	0xbd6dda6c	-0.05806963
174	0x3c22ef20	0.009944707
175	0x3dbf7810	0.09349072
176	0xbde58546	-0.112070605
177	0xbdf118ee	-0.11772333
178	0xbdd3cbac	-0.10341582
179	0x3dca6266	0.09882049
180	0xbd7e9450	-0.06215316
181	0x3dae57fe	0.08512877
182	0x3c82c5a8	0.01596339
183	0xbdeb7396	-0.11496656
184	0xbd63ed48	-0.05564621
185	0x3d428b30	0.04749602
186	0x3ca600c0	0.02026403
187	0xbd946ce2	-0.0724733
188	0xbdf336f4	-0.11875716
189	0xbc169a30	-0.009192035
190	0xbddb5a18	-0.107105434
191	0x3d7fcc5c	0.06245075
192	0xbf489d00	-0.78364563
193	0x3b9577e0	0.0045614094
194	0x3fd3c12f	1.654333
195	0xbdf2b10e	-0.11850177
196	0x40024817	2.03565
197	0xbec9b187	-0.39393255
198	0x3c72bed0	0.014816001
199	0x3d92b832	0.07164039
200	0x3f596b6d	0.84929544
201	0x3f937cb8	1.1522436
202	0x402244d8	2.535452
203	0x3f92555b	1.1432298
204	0x3f92d6f5	1.147185
205	0x3d6a56d4	0.057211712
206	0xbdc3f014	-0.09567276
207	0xbde81cdc	-0.113336295
208	0x3de6d844	0.11271718
209	0x400dffd1	2.2187388
210	0x4010a134	2.259839
211	0x3f5253aa	0.8215891
212	0x4066ad40	3.6043243
213	0xbac00d80	-0.0014652461
214	0x3ded1c30	0.11577642
215	0x3ee1ce9e	0.4410295
216	0x3d655180	0.055985928
217	0x3d0efb3c	0.034907565
218	0x403a49c9	2.9107535
219	0xbd8d6be4	-0.06905344
220	0x3fbf36a0	1.4938545
221	0x3cc3e7e0	0.023914278
222	0x3ccefe2c	0.025267683
223	0xbd5a9188	-0.053361446
224	0x3d8785bc	0.06617305
225	0xbd81393e	-0.06309746
226	0xbdd99a12	-0.1062509
227	0x3daebc8e	0.08532058
228	0xbba4f060	-0.0050335377
229	0x3f9e1c6d	1.2352425
230	0x3f79dfca	0.976071
231	0x3fa31761	1.274151
232	0x3dfd1904	0.12358287
233	0xbf4db2b7	-0.8035082
234	0x3fec2977	1.8450154
235	0xbf577fcb	-0.8417937
236	0xbe58a60f	-0.21157096
237	0xbdacc030	-0.08435094
238	0x3e941ae1	0.28926757
239	0x3f34f85c	0.70691466
240	0x3da7c76a	0.08192332
241	0x3f317597	0.6932005
242	0xbd73b4a0	-0.05949843
243	0xbe98c276	-0.29835862
244	0xbf84617b	-1.0342249
245	0xba747a00	-0.0009326041
246	0xbd95f208	-0.073215544
247	0x3f7e4771	0.9932776
248	0x400946ad	2.1449387
249	0x3c5671e0	0.013088673
250	0xbf18a1cd	-0.5962189
251	0x3fcf639f	1.6202277
252	0x3dd8d842	0.10588123
253	0xbde0e79a	-0.109816745
254	0x3df6b24a	0.12045725
255	0x40165c62	2.3493886

fc2.bias f4 [64]
0	0xbe03ed33	-0.12883453
1	0xbe391d3d	-0.1807756
2	0xbdfe56ae	-0.124188766
3	0x3cb43871	0.02199957
4	0xbe036897	-0.12832867
5	0xbc85aeff	-0.016318796
6	0xbda9074f	-0.08253347
7	0xbf3ba0eb	-0.73292416
8	0xbdeedb0f	-0.11662876
9	0xbf96da20	-1.1785316
10	0x3cf40f4a	0.029792447
11	0xbd858ab2	-0.06520595
12	0x3e4e6e68	0.20159304
13	0xbe00ef6f	-0.12591337
14	0xbf361276	-0.7112192
15	0xbdafb5e7	-0.08579617
16	0xbddc3ca6	-0.10753755
17	0xbe018f44	-0.12652308
18	0xbd1815dc	-0.03713022
19	0x3e3a2e2c	0.18181676
20	0xbdd795ce	-0.1052662
21	0x3fb54d9c	1.416431
22	0xbf52ed0a	-0.8239294
23	0x3fb8f710	1.4450397
24	0x3b93fcd2	0.0045162225
25	0x3f9452fc	1.1587825
26	0x3fe1d15e	1.7642019
27	0x3d42a242	0.047518022
28	0xbdf69e12	-0.12041868
29	0xbe3fcd47	-0.18730651
30	0xbe08b205	-0.13349159
31	0x3ecf58b9	0.40497378
32	0xbd1c240e	-0.038120322
33	0x3cc4b9f0	0.024014443
34	0xbdc89312	-0.097936764
35	0xbde088de	-0.10963605
36	0xbe090df1	-0.13384224
37	0x3e8ec1bc	0.27882183
38	0xbd4fba5a	-0.050714828
39	0xbe1056d6	-0.14095625
40	0x3d7159f7	0.058923688
41	0x3f6de5e7	0.9292893
42	0xbd93a5a5	-0.072093286
43	0xbe1c607a	-0.15271178
44	0xbf86c6f3	-1.0529464
45	0x3f16d384	0.589165
46	0xbfad2c88	-1.3529215
47	0x3e4a4b49	0.19755282
48	0xbe8fa053	-0.28052005
49	0x3df0ec4c	0.1176382
50	0xbf2ccbc6	-0.67498434
51	0x3e8db357	0.27675888
52	0xbf09af62	-0.5378324
53	0xbe505f9e	-0.20348975
54	0xbd191c4b	-0.037380498
55	0xbd2c21d3	-0.042024445
56	0xbf878f6a	-1.0590641
57	0xbd274046	-0.04083278
58	0xbc8b708b	-0.017021438
59	0x3e8c772c	0.2743467
60	0xbe06e163	-0.13171916
61	0x3d4cd65e	0.050009124
62	0x3f708e56	0.9396719
63	0x3beb94e8	0.007189382

fc3.weight f4 [3, 64]
0	0xbd715b90	-0.05892521
1	0x3ff97455	1.9488627
2	0xbd44e99c	-0.04807435
3	0x409b8e07	4.8610873
4	0x410f1183	8.941775
5	0xbc32805b	-0.01089486
6	0xbd3a6a70	-0.045511663
7	0x4013b261	2.3077624
8	0x3de8dfd7	0.11370819
9	0x41373ce9	11.452371
10	0x3d9514f5	0.07279388
11	0x40eac906	7.337039
12	0x40165315	2.348821
13	0xbdf9d812	-0.12199415
14	0x407e4ced	3.9734452
15	0xbd950c45	-0.07277731
16	0x3f4f8a01	0.8106995
17	0xbc924faf	-0.017860262
18	0xbda0f08a	-0.07858379
19	0x4064d5fa	3.57556
20	0x3daf9188	0.0857268
21	0xc084d3be	-4.1508474
22	0x411b6f7c	9.714718
23	0xc10e5c38	-8.897514
24	0xbd8f94cd	-0.07010803
25	0xc00ad9ad	-2.1695359
26	0xc02f386f	-2.7378194
27	0xc055e3a0	-3.3420181
28	0xbd988573	-0.074473284
29	0xbdaf9419	-0.08573169
30	0x3d4fedab	0.050763767
31	0xc02fbfde	-2.7460856
32	0xbe00ac15	-0.12565644
33	0xbd65647c	-0.056004032
34	0x3deafdfc	0.11474225
35	0xbdd67939	-0.1047234
36	0x3c901428	0.017587736
37	0xc02d7ad7	-2.7106225
38	0xbdd83ae5	-0.10558108
39	0xbb8658fc	-0.0040999632
40	0x3f70ad4a	0.9401442
41	0xc1243830	-10.263718
42	0x3d43f264	0.047838584
43	0x3dc14582	0.09437086
44	0x40ee5829	7.4482617
45	0x40a08447	5.016147
46	0xbfdcb89e	-1.7243841
47	0x40e30396	7.0941877
48	0xc018ac44	-2.3855143
49	0x41094b5f	8.580901
50	0x3fdd8931	1.7307492
51	0x40fc73d6	7.88914
52	0x3fbb9801	1.4655763
53	0xbd129f72	-0.03579659
54	0xbcfab848	-0.03060545
55	0xbce1faee	-0.027585473
56	0x41225579	10.145867
57	0xbcb18458	-0.021669552
58	0xbcd1d830	-0.025615782
59	0xc00f7a3b	-2.2418354
60	0xc0825125	-4.0724053
61	0x411d1de3	9.819797
62	0xbf072e87	-0.5280537
63	0x40de11b3	6.9396605
64	0xbb1e72a2	-0.0024177213
65	0x40158e8b	2.3368251
66	0xbdd9d258	-0.10635823
67	0x407f37a3	3.9877708
68	0x41182846	9.509832
69	0xbd201ad5	-0.03908809
70	0x3db33586	0.08750443
71	0x402f2164	2.736413
72	0xbd323954	-0.043511704
73	0x41360adf	11.377654
74	0xbdb5e666	-0.08881836
75	0x40a09243	5.017854
76	0x4094bec5	4.6482873
77	0xbc6911ee	-0.014225466
78	0x402ef7ed	2.7338822
79	0x3c80f030	0.01573953
80	0x4030e5ac	2.764018
81	0x3d877797	0.06614607
82	0xbd938a1e	-0.07204078
83	0x4021a9d4	2.5259905
84	0x3be13434	0.006872678
85	0xc057ba78	-3.3707561
86	0x4116bbcc	9.420849
87	0xc0c87cd8	-6.2652397
88	0xbc9e4fb1	-0.01932511
89	0xc0495dba	-3.1463456
90	0xbffbb3da	-1.9664261
91	0xc069baa1	-3.652016
92	0x3d6798d0	0.056542218
93	0xbd845427	-0.06461363
94	0xbdff67e2	-0.12470986
95	0xbf88a3fa	-1.0675042
96	0xbdafc41a	-0.08582325
97	0x3df2676e	0.11836134
98	0x3bc5c2d1	0.006035187
99	0xbd866239	-0.06561703
100	0x3d545d8a	0.05184702
101	0xc09e523a	-4.9475374
102	0xbe1e5d41	-0.15465261
103	0x3dab302e	0.08358799
104	0xbf8cdfd6	-1.1005809
105	0xc158c8df	-13.549041
106	0xbcfc915f	-0.030831037
107	0xbd849dad	-0.06475387
108	0x40f42324	7.6292896
109	0x4083e553	4.1217437
110	0xc01464b3	-2.3186462
111	0x410619e2	8.381319
112	0xc03a2f8d	-2.9091523
113	0x41105623	9.021029
114	0x4055ca28	3.3404636
115	0x40e311a4	7.0959034
116	0x40290bca	2.6413445
117	0x3b4731de	0.0030394713
118	0x3d88d77a	0.06681724
119	0x3d2e6224	0.042574063
120	0x40e5ec8d	7.185126
121	0x3ccad78e	0.024760988
122	0x3da780e5	0.081788816
123	0xbea3d89f	-0.32001206
124	0xc0ad74ab	-5.4204917
125	0x40a9eb0e	5.309943
126	0x403dcff5	2.9658177
127	0x40c96d40	6.294586
128	0x3e180ca8	0.14848578
129	0x40191360	2.3918076
130	0x3df5078c	0.1196433
131	0x40b0a0ea	5.519643
132	0x411e099c	9.877346
133	0xbd400a97	-0.0468851
134	0x3df4b720	0.11948991
135	0x3fa8cfe8	1.3188448
136	0xbc1f915a	-0.009739244
137	0x4137f000	11.496094
138	0x3d95648f	0.07294571
139	0x40bb374c	5.8505
140	0x409886c2	4.76645
141	0x3c4cf843	0.012510362
142	0x407d477e	3.9574885
143	0x3d54e74e	0.0519784
144	0x3f9ca338	1.223731
145	0xbdbb4b60	-0.09145236
146	0xbd4885bb	-0.04895566
147	0x403dafd5	2.963857
148	0xbd267d6e	-0.040646963
149	0xc03f70af	-2.9912527
150	0x41220590	10.126358
151	0xc0f57bda	-7.6713686
152	0x3cd222d9	0.025651382
153	0xc0747de2	-3.8201833
154	0xc049d406	-3.153566
155	0xc06874a1	-3.6321185
156	0x3de555dc	0.11198017
157	0xbda408fc	-0.08009526
158	0xbd611abd	-0.05495714
159	0xc0215c75	-2.5212681
160	0xbcfcbd26	-0.030851912
161	0x3e2020c4	0.15637499
162	0x3b13ed00	0.0022571683
163	0xbd07cf80	-0.03315687
164	0xbc34daf8	-0.011038534
165	0xc07fa616	-3.994512
166	0xbd589847	-0.052879598
167	0xbdc63772	-0.09678544
168	0x3f746d34	0.9547913
169	0xc18807d5	-17.003824
170	0xbc9f8447	-0.019472254
171	0xbd821328	-0.0635131
172	0x40c70721	6.21962
173	0x40949f9b	4.644483
174	0xc02b0525	-2.672189
175	0x40e6320f	7.1936107
176	0xbfb5d784	-1.4206395
177	0x4125d010	10.3632965
178	0x3fcad713	1.5846885
179	0x40e8ae49	7.271275
180	0x3ffed7f8	1.9909658
181	0x3d277406	0.040882133
182	0xbcdee3b0	-0.02720818
183	0xbd5c4423	-0.053775918
184	0x412188da	10.095911
185	0xbcbd346c	-0.023096286
186	0xbcdd6c54	-0.027029194
187	0xbfaf635e	-1.37022
188	0xc09ad117	-4.8380237
189	0x40997d2a	4.796529
190	0x3f00b688	0.5027852
191	0x40cb9111	6.3614583

fc3.bias f4 [3]
0	0x3e28908b	0.16461389
1	0xbec539cf	-0.38520667
2	0xbf1402d8	-0.5781684
